…
2025-01-09 21:42:37,851 - root - INFO - n_h_list:          144315
2025-01-09 21:42:37,851 - root - INFO - n_t_list:          144315
2025-01-09 21:42:37,851 - root - INFO - n_r_list:          144315
2025-01-09 21:42:37,851 - root - INFO - n_prediction_training:        703
2025-01-09 21:42:37,851 - root - INFO - n_prediction_train:        562
2025-01-09 21:42:37,852 - root - INFO - n_prediction_validate:        141
2025-01-09 21:42:37,852 - root - INFO - n_prediction_testing:         2366
2025-01-09 21:42:37,852 - root - INFO - n_pre_training:        144315
2025-01-09 21:42:37,998 - root - INFO - LiteralKG(
  (entity_embed): Embedding(124974, 30)
  (relation_embed): Embedding(8, 30)
  (linear_gat): Linear(in_features=62, out_features=30, bias=True)
  (gat_activation): LeakyReLU(negative_slope=0.01)
  (aggregator_layers): ModuleList(
    (0): Aggregator(
      (message_dropout): Dropout(p=0.1, inplace=False)
      (activation): LeakyReLU(negative_slope=0.01)
      (layer_normalize): LayerNorm((16,), eps=1e-05, elementwise_affine=True)
      (linear): Linear(in_features=30, out_features=16, bias=True)
    )
    (1): Aggregator(
      (message_dropout): Dropout(p=0.1, inplace=False)
      (activation): LeakyReLU(negative_slope=0.01)
      (layer_normalize): LayerNorm((16,), eps=1e-05, elementwise_affine=True)
      (linear): Linear(in_features=16, out_features=16, bias=True)
    )
  )
  (emb_num_lit): Gate(
    (g): Linear(in_features=36, out_features=30, bias=True)
    (gate_ent): Linear(in_features=30, out_features=30, bias=False)
    (gate_lit): Linear(in_features=6, out_features=30, bias=False)
  )
  (fc1): Linear(in_features=60, out_features=32, bias=True)
  (norm1): BatchNorm1d(32, eps=1e-05, momentum=0.1, affine=True, track_running_stats=True)
  (fc2): Linear(in_features=32, out_features=16, bias=True)
  (norm2): BatchNorm1d(16, eps=1e-05, momentum=0.1, affine=True, track_running_stats=True)
  (fc3): Linear(in_features=16, out_features=1, bias=True)
)
2025-01-09 21:42:39,759 - root - INFO - Update Attention: Epoch 0001 | Total Time 0.0s
2025-01-09 21:42:39,759 - root - INFO - Pre-training: Epoch 0001/0500 Total Iter 0007 | Total Time 1.7s | Iter Mean Loss 0.7118
2025-01-09 21:42:39,800 - root - INFO - Save pre-training model on epoch 0001!
2025-01-09 21:42:40,245 - root - INFO - Update Attention: Epoch 0002 | Total Time 0.0s
…
